…
Loads checkpoint by local backend from path: /home/wangcheng/project/SCVT4/portable_sam2_fusion/checkpoints/sam2.1_hiera_base_plus.pt
Decoder state dict keys: 131
Loaded SAM2 MaskDecoder. Missing keys: 0
  use_high_res_features: True
  Has conv_s0: True
  Has conv_s1: True
[DEBUG] share_sam2_backbone=False
[DEBUG] hasattr(self, 'backbone')=True
[DEBUG] type(self.backbone)=<class 'portable_sam2_fusion.rsprompter.models_sam2.RSSAM2VisionEncoder'>
[DEBUG] hasattr(self.backbone, 'encoder')=True
[DEBUG] self.backbone.encoder=ImageEncoder(
  (trunk): Hiera(
    (patch_embed): PatchEmbed(
      (proj): Conv2d(3, 112, kernel_size=(7, 7), stride=(4, 4), padding=(3, 3))
    )
    (blocks): ModuleList(
      (0): MultiScaleBlock(
        (norm1): LayerNorm((112,), eps=1e-06, elementwise_affine=True)
        (attn): MultiScaleAttention(
          (qkv): Linear(in_features=112, out_features=336, bias=True)
          (proj): Linear(in_features=112, out_features=112, bias=True)
        )
        (drop_path): Identity()
        (norm2): LayerNorm((112,), eps=1e-06, elementwise_affine=True)
        (mlp): MLP(
          (layers): ModuleList(
            (0): Linear(in_features=112, out_features=448, bias=True)
            (1): Linear(in_features=448, out_features=112, bias=True)
          )
          (act): GELU(approximate='none')
        )
      )
      (1): MultiScaleBlock(
        (norm1): LayerNorm((112,), eps=1e-06, elementwise_affine=True)
        (attn): MultiScaleAttention(
          (qkv): Linear(in_features=112, out_features=336, bias=True)
          (proj): Linear(in_features=112, out_features=112, bias=True)
        )
        (drop_path): DropPath()
        (norm2): LayerNorm((112,), eps=1e-06, elementwise_affine=True)
        (mlp): MLP(
          (layers): ModuleList(
            (0): Linear(in_features=112, out_features=448, bias=True)
            (1): Linear(in_features=448, out_features=112, bias=True)
          )
          (act): GELU(approximate='none')
        )
      )
      (2): MultiScaleBlock(
        (norm1): LayerNorm((112,), eps=1e-06, elementwise_affine=True)
        (pool): MaxPool2d(kernel_size=(2, 2), stride=(2, 2), padding=0, dilation=1, ceil_mode=False)
        (attn): MultiScaleAttention(
          (q_pool): MaxPool2d(kernel_size=(2, 2), stride=(2, 2), padding=0, dilation=1, ceil_mode=False)
          (qkv): Linear(in_features=112, out_features=672, bias=True)
          (proj): Linear(in_features=224, out_features=224, bias=True)
        )
        (drop_path): DropPath()
        (norm2): LayerNorm((224,), eps=1e-06, elementwise_affine=True)
        (mlp): MLP(
          (layers): ModuleList(
            (0): Linear(in_features=224, out_features=896, bias=True)
            (1): Linear(in_features=896, out_features=224, bias=True)
          )
          (act): GELU(approximate='none')
        )
        (proj): Linear(in_features=112, out_features=224, bias=True)
      )
      (3-4): 2 x MultiScaleBlock(
        (norm1): LayerNorm((224,), eps=1e-06, elementwise_affine=True)
        (attn): MultiScaleAttention(
          (qkv): Linear(in_features=224, out_features=672, bias=True)
          (proj): Linear(in_features=224, out_features=224, bias=True)
        )
        (drop_path): DropPath()
        (norm2): LayerNorm((224,), eps=1e-06, elementwise_affine=True)
        (mlp): MLP(
          (layers): ModuleList(
            (0): Linear(in_features=224, out_features=896, bias=True)
            (1): Linear(in_features=896, out_features=224, bias=True)
          )
          (act): GELU(approximate='none')
        )
      )
      (5): MultiScaleBlock(
        (norm1): LayerNorm((224,), eps=1e-06, elementwise_affine=True)
        (pool): MaxPool2d(kernel_size=(2, 2), stride=(2, 2), padding=0, dilation=1, ceil_mode=False)
        (attn): MultiScaleAttention(
          (q_pool): MaxPool2d(kernel_size=(2, 2), stride=(2, 2), padding=0, dilation=1, ceil_mode=False)
          (qkv): Linear(in_features=224, out_features=1344, bias=True)
          (proj): Linear(in_features=448, out_features=448, bias=True)
        )
        (drop_path): DropPath()
        (norm2): LayerNorm((448,), eps=1e-06, elementwise_affine=True)
        (mlp): MLP(
          (layers): ModuleList(
            (0): Linear(in_features=448, out_features=1792, bias=True)
            (1): Linear(in_features=1792, out_features=448, bias=True)
          )
          (act): GELU(approximate='none')
        )
        (proj): Linear(in_features=224, out_features=448, bias=True)
      )
      (6-20): 15 x MultiScaleBlock(
        (norm1): LayerNorm((448,), eps=1e-06, elementwise_affine=True)
        (attn): MultiScaleAttention(
          (qkv): Linear(in_features=448, out_features=1344, bias=True)
          (proj): Linear(in_features=448, out_features=448, bias=True)
        )
        (drop_path): DropPath()
        (norm2): LayerNorm((448,), eps=1e-06, elementwise_affine=True)
        (mlp): MLP(
          (layers): ModuleList(
            (0): Linear(in_features=448, out_features=1792, bias=True)
            (1): Linear(in_features=1792, out_features=448, bias=True)
          )
          (act): GELU(approximate='none')
        )
      )
      (21): MultiScaleBlock(
        (norm1): LayerNorm((448,), eps=1e-06, elementwise_affine=True)
        (pool): MaxPool2d(kernel_size=(2, 2), stride=(2, 2), padding=0, dilation=1, ceil_mode=False)
        (attn): MultiScaleAttention(
          (q_pool): MaxPool2d(kernel_size=(2, 2), stride=(2, 2), padding=0, dilation=1, ceil_mode=False)
          (qkv): Linear(in_features=448, out_features=2688, bias=True)
          (proj): Linear(in_features=896, out_features=896, bias=True)
        )
        (drop_path): DropPath()
        (norm2): LayerNorm((896,), eps=1e-06, elementwise_affine=True)
        (mlp): MLP(
          (layers): ModuleList(
            (0): Linear(in_features=896, out_features=3584, bias=True)
            (1): Linear(in_features=3584, out_features=896, bias=True)
          )
          (act): GELU(approximate='none')
        )
        (proj): Linear(in_features=448, out_features=896, bias=True)
      )
      (22-23): 2 x MultiScaleBlock(
        (norm1): LayerNorm((896,), eps=1e-06, elementwise_affine=True)
        (attn): MultiScaleAttention(
          (qkv): Linear(in_features=896, out_features=2688, bias=True)
          (proj): Linear(in_features=896, out_features=896, bias=True)
        )
        (drop_path): DropPath()
        (norm2): LayerNorm((896,), eps=1e-06, elementwise_affine=True)
        (mlp): MLP(
          (layers): ModuleList(
            (0): Linear(in_features=896, out_features=3584, bias=True)
            (1): Linear(in_features=3584, out_features=896, bias=True)
          )
          (act): GELU(approximate='none')
        )
      )
    )
  )
  (neck): FpnNeck(
    (position_encoding): PositionEmbeddingSine()
    (convs): ModuleList(
      (0): Sequential(
        (conv): Conv2d(896, 256, kernel_size=(1, 1), stride=(1, 1))
      )
      (1): Sequential(
        (conv): Conv2d(448, 256, kernel_size=(1, 1), stride=(1, 1))
      )
      (2): Sequential(
        (conv): Conv2d(224, 256, kernel_size=(1, 1), stride=(1, 1))
      )
      (3): Sequential(
        (conv): Conv2d(112, 256, kernel_size=(1, 1), stride=(1, 1))
      )
    )
  )
)
Loads checkpoint by local backend from path: /home/wangcheng/project/SCVT4/portable_sam2_fusion/checkpoints/sam2.1_hiera_base_plus.pt
[StandaloneSAM2Backbone] Loaded from /home/wangcheng/project/SCVT4/portable_sam2_fusion/checkpoints/sam2.1_hiera_base_plus.pt. Missing keys: 0
2026-03-02 23:13:55,171 - dinov2 - WARNING - xFormers not available
…
